simple_CNN/model_cifar.pt (torch, 874439 bytes, 10 tensors)

conv1.weight f4 [16, 3, 3, 3]
00000000: 7fbf 383e 5c8f e13d 04a7 c6bd e297 123e
00000010: dd16 223e f613 983d 9fb0 e03d 4d24 073e
00000020: b512 463d 482d e83b 873c 013d e2a8 f4bd
00000030: f10a 27be 55c1 bf3d 3050 953c 8319 86bd
00000040: 7503 dcbd 9f0e cebc fb40 01bc 8c61 5bbd
00000050: 3798 45be fe21 b03d fc55 333e 4b3f 613d
00000060: 4c6f 473d 538e 7dbd 1b0d 503e 2e1a cb3c
00000070: 93e3 8e3e b964 453e bc80 413e a04c 213d
00000080: bf30 543d 34e2 6a3e 674e e93d f1bb 4fbc
00000090: 8652 f53d b4f0 913e 8fab 8abb 3594 e1bd
000000a0: 2f65 f23c 4e39 72be 10d8 8d3d 1e27 53bd
000000b0: aebb b3bd 4823 02be a844 b43e 2177 723e
000000c0: b28b 083e aef5 753e 32bb 95bc 88a5 83be
000000d0: 0a79 b23d 6298 c0be b5d0 243e 648f 3d3e
000000e0: 60f0 f5bc 6094 fd3d de75 763d bda5 65bc
000000f0: fca4 ecbd e5ae 343c 7361 5fbd a35e 87bc
00000100: 1472 ee3d e1a9 833d 9233 5d3d b923 89bd
00000110: 47f0 5f3e 2ba8 133e a5f8 253e 231b eb3c
00000120: 826f bd3d 885f 923e 4ed6 f83c f637 55be
00000130: 87ea 083e 38fd aa3d 6ceb 8abe bb2c 48be
00000140: 3ff2 b63c a20a ea3d 82be 453e f5ba 54bd
00000150: caa2 153f 2ca3 fc3e e3c3 3d3e 6a12 913e
00000160: a87a b23e 04bb bb3d c703 403b bdb6 23bd
00000170: c141 25be 54c4 9cbe 0abf cdbe 186e bfbe
00000180: 2835 05be 8509 90be 479e b7be 4ef6 96bd
00000190: 7e1c 5bbe 22a0 9c3e 1f90 b5be b325 f2bd
000001a0: 564d 433e ec2c 80be 368c 31be 09f8 773e
000001b0: 32d6 623e 7eb9 f73e dfc2 90be d1de b83e
000001c0: 282a e43e 002a 95be b246 833e 6319 5a3e
000001d0: 37bf 17bf 314e 4d3e f510 533e 84e2 1fbf
000001e0: 65ee 2b3e 746c 8e3e b3b9 6abf fef8 41bd
000001f0: 3f29 1cbc 6557 76bf c900 683e 48eb e63e
00000200: cc93 35be 1406 603e fd13 993e a7a2 debe
00000210: 9dda 9f3e 2598 4d3e dd1a e9be 7597 5abe
00000220: 843c 87be 4940 3bbe 559d 8bbd cfea 7abe
00000230: b5e9 d6be adcd 8fbe f231 06be b981 f4bd
00000240: e3fa ea3d 37f6 373e 4306 0e3e a418 3f3e
00000250: bb3d 1f3e f4d2 723e a237 0bbe 4e9f 35be
00000260: dced 523d a5d2 d23c 8313 043e 9c10 473e
00000270: cf16 b9bd 7781 373e 2ece 793e 37a7 06bd
00000280: 233d 843d 4e55 523e e917 39be d4ae d9bd
00000290: 5bac 3f3e 1f63 03bf 585c b73d b348 e43e
000002a0: ea9e b7be 537a ed3d 8fbc e23e c93b a3be
000002b0: 3304 cd3a 5a0a 863e a5f8 0ebf a7ba af3d
000002c0: 48ae 553e 6acc 14bf c591 923e 9b55 833e
000002d0: bd69 06bf d28a e3bb e4d0 623e cc30 52bf
000002e0: bc31 493e 6b1d 0c3f 55b3 b4be 9c13 c23e
000002f0: c617 153f 7a3d 39be 144f bfbd e23d b8be
00000300: 554c 67be 7451 d7be 165d 94be 6779 e73d
00000310: 3814 f53d d02e b23e c03f 203d c301 8ebe
00000320: 7063 dbbe eb58 acbe d00a bdbe e754 f7bd
00000330: 744f 663e c85e 903e a116 c73e 12d2 05be
00000340: 54b5 a5be afe3 aebd 1a23 b4bc 1df9 e73c
00000350: b18a aa3d 53fa ed3c 5cfe 663e 8503 193f
00000360: 257c 42be f8b4 27be 32ff eabd 0ef7 78be
00000370: 4764 c03d 5c28 503e edb0 d7be a997 d3be
00000380: 7301 653d 29d4 87be 13da abbd f3bf 8f3c
00000390: 87c3 673e 3443 383e 9366 b63d 92f5 cdbe
000003a0: 5d3d bdbe 75f3 87be ef86 ef3d 5557 023e
000003b0: 30ec 693e 1c9e f33e e664 e33e 5e81 e93e
000003c0: 7c06 06bd 5bdd fabb 286b b33d 7032 343f
000003d0: 3152 5c3f d8b5 6a3f 3f78 71bd ef05 6d3d
000003e0: 4da5 d9bd df77 23bf fb78 2cbf 1542 1bbf
000003f0: 4b1c e93e 35e7 513e d743 113f 32d1 3dbc
0.180418 0.11013672 -0.096998245 0.14315751 0.15829034 0.07425682 0.10971188 0.13197441
0.048357684 0.007085476 0.031551864 -0.11946274 -0.16312768 0.09363047 0.018226713 -0.06547835
-0.10742847 -0.025153456 -0.007889028 -0.053559825 -0.19296347 0.086002335 0.17513269 0.054992
0.048690125 -0.06190331 0.203175 0.024792757 0.27908 0.19276704 0.18896765 0.039379716
0.0518043 0.22937852 0.11391907 -0.012679086 0.11978631 0.28503954 -0.004231877 -0.110145964
0.029589264 -0.23654673 0.06925976 -0.051550977 -0.087760314 -0.12708771 0.3520863 0.23678257
0.1333454 0.240195 -0.018277738 -0.25712228 0.087144926 -0.3761626 0.1609524 0.1851173
-0.030021846 0.12381816 0.060171 -0.014016566 -0.11554906 0.011028026 -0.054536294 -0.016524618
0.116428524 0.06428886 0.05400426 -0.06696267 0.21869002 0.1441962 0.16208132 0.028699463
0.09249784 0.2858851 0.030375626 -0.20822129 0.13370715 0.08349079 -0.27132738 -0.19548313
0.022332309 0.11427809 0.19310954 -0.05193611 0.5845152 0.4934324 0.18531756 0.2833436
0.34859204 0.0916653 0.0029299126 -0.039969195 -0.16138364 -0.30618536 -0.40184814 -0.37388682
-0.13008559 -0.28132263 -0.35862944 -0.07371198 -0.21397588 0.30590922 -0.35461518 -0.11823597
0.1907247 -0.25034273 -0.17338642 0.24215712 0.22152022 0.48383707 -0.28273675 0.36107495
0.44563413 -0.29133606 0.25639874 0.21298747 -0.59276146 0.20049359 0.20611937 -0.6245501
0.16790159 0.27817118 -0.91689605 -0.047356598 -0.009531318 -0.96227103 0.2265655 0.4510138
-0.17732161 0.21877319 0.29898062 -0.4348347 0.31221476 0.2007757 -0.45528308 -0.21346839
-0.26413357 -0.18286242 -0.06817118 -0.24503635 -0.4197518 -0.28086606 -0.1310499 -0.11938805
0.11473634 0.17965017 0.13869576 0.18661743 0.15550892 0.23713285 -0.13595441 -0.17736551
0.05149637 0.025735209 0.12898068 0.1943993 -0.090375535 0.1792048 0.24395058 -0.032874312
0.064569734 0.20540354 -0.18075527 -0.10629049 0.18718092 -0.5132312 0.0895316 0.44586715
-0.3586343 0.11595597 0.44284484 -0.3188155 0.001564151 0.26179773 -0.5584815 0.08580523
0.20867264 -0.5812441 0.28626838 0.2565125 -0.52505094 -0.006944039 0.22149998 -0.8210571
0.19647878 0.5473239 -0.3529307 0.37905586 0.582394 -0.18089858 -0.09341255 -0.35984713
-0.22587712 -0.4205433 -0.2897727 0.113024525 0.11966747 0.3480134 0.039123297 -0.2773572
-0.42849302 -0.3366159 -0.36922312 -0.12076741 0.22491246 0.28197312 0.38884452 -0.13068417
-0.32364905 -0.08539521 -0.021989394 0.028317029 0.083272345 0.029050028 0.22557968 0.59770995
-0.1899267 -0.16377628 -0.11474456 -0.24312994 0.093941264 0.20327896 -0.4212717 -0.41326645
0.055909585 -0.26529053 -0.08391204 0.017547583 0.22633182 0.17994386 0.08906283 -0.40226418
-0.3696088 -0.2655293 0.116956584 0.12728627 0.22844005 0.47581565 0.44412917 0.45606512
-0.032721028 -0.007655782 0.08760673 0.7038946 0.86062914 0.9168372 -0.058952566 0.057866987
-0.10627232 -0.63854784 -0.673721 -0.6064771 0.45529398 0.20498355 0.5674414 -0.011585521

conv1.bias f4 [16]
00000000: 2c7d dc3e f8f2 f3bd 58ae 663e 13b9 c6be
00000010: 64e4 70bd a8a8 253e 8ef3 33bd b684 9ebe
00000020: 5a57 90bc e74c 9bbe 2f84 dd3e c8da 26be
00000030: 0093 543d 80cf 85be 3db9 83bd 1b88 64bc
0.4306425 -0.11911577 0.22527444 -0.38813075 -0.05881156 0.16177619 -0.043933444 -0.30960625
-0.017619777 -0.3033211 0.4326491 -0.16294396 0.051898003 -0.26134872 -0.06431816 -0.013948466

conv2.weight f4 [25, 16, 3, 3]
00000000: 00b1 a8bd f2e0 dabd b33c afbd 0114 8abd
00000010: e6cb e7bc 2a3e 74bb fc9c dcbd d4e9 d9bd
00000020: 9f59 8bbd e123 95bd fae7 1fbe fcc6 81bd
00000030: b5be 82bd 37b8 fbbc a9e2 243c c905 eb3c
00000040: cf48 01bd ed7b 98bc 786e 44bd 09fc 23bd
00000050: 5da6 90bd 0e3f 7f3c 9412 af3c 91a9 233d
00000060: ac43 c3bc 6ed4 193d ee3d 9c3d 2efa ad3d
00000070: 2595 f73d 5d34 333e cff6 cf3d de74 883e
00000080: 2cf0 8f3e f0f6 6bbd 4bed 2f3e e055 df3d
00000090: b8bf 25be c383 4ebd 5915 0dbe c302 5cbe
000000a0: 977f 89be 7988 48be 53bc abbd 5680 2ebe
000000b0: 4439 85be 321b 563c 80a5 483d 12fe 893d
000000c0: b7ef 2e3c a75e 283d 07d7 9d3c 4df8 8c3d
000000d0: a224 95bd 9b5f 993d 1ad4 eebd 9fae 26be
000000e0: 969d 62be 18c0 a93c f8b8 50bd 6977 83be
000000f0: 6c4c 66be 53c1 0bbd 7191 1d3e a254 49bc
00000100: c60c e03b 922e f83a fb55 2fbd 6000 b5bc
00000110: c95c abbd ee5b a9bd 55d3 1c3d eac9 e4bd
00000120: aae2 813d dbe0 0c3c 432b ea3c 8cdc 923d
00000130: 171f 303e 0367 373e 9682 c2bd fc0a 80bd
00000140: b474 853d d3d1 803e ce9f 083c c3f3 e23d
00000150: 2dc7 4c3e 439e 8a3d 8800 fc3d bdc4 0c3e
00000160: d43e f03e 6cf6 703e aa27 f93d f804 9d3d
00000170: 9424 ec3d b2b8 6fbd 05bd 39bd 723f 44bd
00000180: cf25 6cbd 07e3 a9bd 8c5b 443d 6977 e23d
00000190: 9de2 05be bdc4 f1bd 2205 3c3e 2e8d c6bd
000001a0: c21c 0dbe df72 323e 3ddb 123e b85f 0cbd
000001b0: 4803 8e3d a6b8 2a3d 9188 d43d 8cbb 323e
000001c0: 3416 cf3b f17d 0abc 7934 db3d a26f 193e
000001d0: cf6d 473e e356 07be 7406 a9bd 198c 8abd
000001e0: a742 bbbd 1dc1 75bb 50aa c6bd 79b0 25bd
000001f0: d209 84bc b8d3 193d 9fa4 333e 6432 6abd
00000200: 4fd4 8bbd 59dd 943d bab2 cdbd c56d 0dbe
00000210: 1464 3d3e c61b 193e c5b7 243e 82c9 f7bd
00000220: 4753 2fbe dcac c5bd 9839 9a39 8e35 0dbd
00000230: a868 f4bd ca92 983d fdbc 4d3d cfb0 e53c
00000240: 1c7f 883d 2b26 89bd 7451 383d a51d c536
00000250: cbfd 76bd 4c68 ab3d 132b 5dbd f60f 8bbd
00000260: 7af3 4d3d 1c4f f63c 462d 58bd 3b13 8b3c
00000270: f0f7 6d3d 09a0 f43c 89ac c7bd f417 27bc
00000280: 1404 8c3c 32d8 303e 1ec1 3a3b 1589 783c
00000290: 2e94 82bb 99d5 8c3d fc9a ad3d 7a22 9ebd
000002a0: 9f63 b5bc c682 533d dd29 193e fa91 97bd
000002b0: 5c96 953c 3d21 133e 386a 233e bb4e 61bc
000002c0: 0447 71bc d7e4 f83c baba f53d 4cb9 b13d
000002d0: b799 a8bd 034f b83c 2f18 8a3e 8bad 1b3e
000002e0: bfd2 edbc b1b9 74be 7fde 6bbe d36b 53be
000002f0: 352d c7bd 7373 9bbd b87a c2bd 7020 1cbd
00000300: 3fb4 abbc 1369 f5bd 87ae 15bd 4e7a babd
00000310: 5606 81bd d697 013d d79c 60bc 01f0 06be
00000320: df43 30be 64d3 2abe 6b3e d83d 17b9 47bd
00000330: f3fd b93d 92ce d43c 0f08 e8bd 88f3 23be
00000340: 973f 15be d80b 05be ce9f 5dbe 752c 52bd
00000350: 16a8 90bd 267c 1cbe b4ad 42bd 0335 42be
00000360: f81a fcbd cfb7 8fbd 6bb6 16bd 4657 9abd
00000370: b6c5 48bb 0375 29bd 9838 a2bd 1b26 8c3a
00000380: 5b96 b23d 2c5d 9abe 364b 0a3e ac5f 6c3d
00000390: bcf3 c83e a244 273e d551 f0be 2b62 2ebe
000003a0: 70c5 16be 0462 1e3e 0d6d 173c 74ef 0fbe
000003b0: 02be 843d 7cbb 14be 8760 07be 9308 cbbd
000003c0: abd7 86bd 395e d6bd 49b0 6dbd 423f 4b3e
000003d0: adc8 af3e 028f 503e bceb 953e 96c6 8fbd
000003e0: 2b79 9abc f8ca f8bd 7bd9 f93d d52e 103e
000003f0: 5033 f83d 1e09 0f3d a88f 843d 698f f2bc
-0.08236885 -0.10687436 -0.08556499 -0.06742097 -0.028295469 -0.0037268498 -0.1077213 -0.10640302
-0.06804203 -0.07282234 -0.15615836 -0.063367814 -0.06384031 -0.030727489 0.010063806 0.028689282
-0.031563576 -0.01861378 -0.047956914 -0.04003528 -0.07062981 0.015578998 0.021371163 0.039956633
-0.02383598 0.037556104 0.07629 0.084949836 0.12088994 0.17500444 0.10154497 0.26651663
0.28112924 -0.057608545 0.17180364 0.10905051 -0.16186416 -0.050418627 -0.13777675 -0.21485429
-0.26855156 -0.1958331 -0.08385529 -0.17041144 -0.26020253 0.013068007 0.048985958 0.06737913
0.01067727 0.041105893 0.019267572 0.06883297 -0.07282378 0.074889384 -0.11661549 -0.1627755
-0.22130427 0.02072148 -0.05095765 -0.2567704 -0.2249009 -0.034119915 0.15387513 -0.012288244
0.00683746 0.0018934777 -0.042806607 -0.022094905 -0.08367307 -0.08269487 0.03828748 -0.111713246
0.06342061 0.008598532 0.028585082 0.07170972 0.1719936 0.1791039 -0.094975635 -0.06252095
0.065164 0.25160083 0.008338882 0.1108165 0.19997855 0.06768467 0.12304789 0.13746925
0.46922934 0.23531502 0.121657684 0.07666963 0.11530414 -0.05852575 -0.04534628 -0.04791207
-0.057653245 -0.08295255 0.04793887 0.11057932 -0.13074727 -0.11805103 0.18361333 -0.09694897
-0.13780501 0.17426632 0.14341445 -0.034270972 0.069342196 0.04168 0.103776105 0.17454356
0.0063197855 -0.008452878 0.10703368 0.14983991 0.19475482 -0.13216738 -0.08253184 -0.06765003
-0.09143572 -0.0037499138 -0.09700453 -0.0404515 -0.016117964 0.037555426 0.17543267 -0.057176962
-0.06827604 0.07268781 -0.10043855 -0.13811405 0.18495208 0.14952001 0.16085728 -0.120989814
-0.17121612 -0.09652111 0.0002941608 -0.0344749 -0.11934024 0.07449873 0.05022906 0.02803841
0.06664869 -0.06696733 0.044999555 5.8745086e-06 -0.06030063 0.083695024 -0.053996157 -0.06790154
0.050281025 0.03006702 -0.05277755 0.016976943 0.05809778 0.029861467 -0.09749705 -0.010198582
0.017091788 0.17269972 0.0028496454 0.015169402 -0.0039849496 0.06876678 0.084768265 -0.0772142
-0.02214223 0.051638387 0.14957376 -0.0740089 0.018260173 0.14368148 0.15958488 -0.013751681
-0.014726404 0.030382557 0.11998506 0.08677921 -0.08232444 0.022498613 0.26971576 0.1520292
-0.029031156 -0.2389896 -0.23034094 -0.206466 -0.097254194 -0.075903796 -0.09496063 -0.038116872
-0.020959971 -0.11982932 -0.036543395 -0.09105359 -0.063000366 0.031638943 -0.0137092685 -0.13177492
-0.17213391 -0.16682202 0.1055878 -0.0487605 0.0908164 0.025977407 -0.11329662 -0.16010869
-0.14575039 -0.129928 -0.21642992 -0.05131193 -0.0706331 -0.15281734 -0.047528937 -0.18965535
-0.123098314 -0.070174806 -0.03679506 -0.07536177 -0.0030635423 -0.041371357 -0.07920951 0.0010692509
0.08720084 -0.3014921 0.13505253 0.057708427 0.39248455 0.16334775 -0.46937433 -0.17029636
-0.14723754 0.15467077 0.009242308 -0.14056188 0.064815536 -0.14524645 -0.13220416 -0.09913745
-0.06584104 -0.1046719 -0.058029447 0.1984835 0.3433279 0.20367053 0.29281414 -0.07020299
-0.018856606 -0.12148088 0.12199684 0.14080365 0.12119162 0.034920804 0.06472713 -0.029609399

conv2.bias f4 [25]
00000000: ce00 c3be 5cbc e7be 5b47 8cbd bba6 9fbd
00000010: 8e7e a6be f39d e33d 46b3 16be 4443 a0be
00000020: b735 4e3e 5b89 07bf 6bee 7cbe eb7d bebe
00000030: 2c41 ef3d 8c99 103f 0734 c4be 7258 cabe
00000040: 3a44 c8bd aece 4dbd 0269 e5be ad20 d73e
00000050: 26cf 4f3f 85bc 88be 91dc 15bd e653 50be
00000060: a911 e33e
-0.3808655 -0.45260894 -0.068495475 -0.07795473 -0.3251843 0.11114111 -0.14716825 -0.3130132
0.20137678 -0.5294396 -0.24700324 -0.37205443 0.116823524 0.56484294 -0.38320944 -0.39520603
-0.09778638 -0.050245933 -0.44806677 0.42017117 0.8117546 -0.2670633 -0.0365873 -0.20344505
0.4434941

fc1.weight f4 [128, 1600]
00000000: fad4 9f3c cae9 1dbd 440a 1bbd cfc3 c6bc
00000010: b74c e33c a67e 23bc de22 00bc 0189 8abc
00000020: a5bb 93bc f7db d0bc e548 893c 177b 593d
00000030: 1072 ba3a c458 17bc 8f6f babc 169a 1ebc
00000040: 158f a03c de12 883d 770a 793d b652 023c
00000050: ed76 bebc edea 43bc 6df9 803c 9cd4 f03c
00000060: a951 8d3b f898 a63b 4ec1 6c3c 4605 973c
00000070: 7225 f13c 0cd2 ad3c 1131 c0bc 0a52 343c
00000080: 02fd 3dbc 3f06 a43c cde4 a6bc d8d0 adbd
00000090: 8a4f 74bc 7dd6 913b 9ae7 0f3d d529 cdbc
000000a0: af0d 15bd 036b fbbc 3b1a 623c 0c98 f4bc
000000b0: 7431 51bc 8f99 86bb 494c 05bc 7647 aa3b
000000c0: 6c2d ffba 21df 0f3b 5883 70bc 575f 0fbd
000000d0: 0e56 a6bc de9d 8e3c f482 65bd 737e 84bb
000000e0: f634 133c 876a 8abc b524 07bc 03e3 36bd
000000f0: be4c f6bc 1c01 18bb b593 733c 522a 6f3c
00000100: 4b59 773c 67f6 213a 216c 0c3c c1a9 14bc
00000110: d39c 39bd dba1 fb3b c93b d43c 6ec6 b2bc
00000120: 5fd9 babb 25e3 0fbc 3818 8dbc 0886 2abd
00000130: 4f69 7fbc ee74 b7bc 0164 80bc f244 373b
00000140: 0ac5 56bc 8b4d 05bd a925 853c 43ff 85bc
00000150: ec62 bfbc d6e3 9fbc 6d56 5bbd 0e81 e2bb
00000160: 1f3d 8e3c 9efe be3a 541b 7e3c e29f 3d3d
00000170: f821 243c ca60 18bc 7631 03bd 44f2 eabc
00000180: 8894 9e3c fafb 5cbc 9248 b0bc 1ed5 e03b
00000190: f500 00bd 79e9 b3bc be20 8d3b 5abb 83bc
000001a0: 793c 04bd 5651 83bb 3bcd d6bc acd1 19bb
000001b0: e344 6dbc 5417 ea3b a561 213d 1940 71bc
000001c0: 59d6 e3bc 0b47 4bbc 7ad5 e4bb d6e4 d33b
000001d0: ce55 98bc da5f 123c 56d3 c43c cb20 08bd
000001e0: 57fb 4cbd 2d73 9bbb ffbd ca3b c2c0 b1bc
000001f0: fa9a 31bd 2e5e 773c 7068 173b aec9 0fbc
00000200: 5fbb a6bc eb26 53bd 03d1 4bbd 3529 12bd
00000210: 2e03 03bd d0b8 79bd 34a7 38bd 8f80 38bd
00000220: 0295 0fbd e98c 55bd b6d8 97bc 32f1 b1bc
00000230: c47c fdbc 4016 efbb 87f1 e9bc 0f67 063c
00000240: 7bcc f8bc a6fa aabc cf75 b0ba 8ef5 893c
00000250: 2bdf 8dbb 15b9 41bd b4e7 aa3b 149a d9bc
00000260: 3a48 933b 427d e93c 5ec5 ce3c b60b ab3c
00000270: ab06 3fbc c6e7 bfbc 27f7 e3bb 223d bebb
00000280: 6aff 81bc 117e ad3b 1630 43bb e18d 8a3c
00000290: 4948 103c be00 9fbc d406 85bc ea04 95bc
000002a0: b94d 2dbd 2979 08bd b455 0b3b 6773 04bb
000002b0: ddb5 cc39 9889 9d3b 4542 64bd 255b 03bd
000002c0: 6216 80bb d76f 1bbd 855c d6bc bf1a 2fbd
000002d0: 1390 b2bc bfde 14bd 3f1d 0fbd 25c1 36bc
000002e0: 4a61 28bb 884f dbbc d24f 40bd 2c83 11bb
000002f0: ff8d e03b 499d 87bc ce44 04bd 4b3d 5e3b
00000300: 58f8 663d f2d0 8c3c db61 4c3d aca1 043d
00000310: db08 813d c4e5 88b8 312e 2e3d 9d14 2639
00000320: 8484 043c d0f9 713d 7038 3abb 6ca3 6e3d
00000330: bb4b 5c3d b3c2 143d 5c19 d73c 83ef af3c
00000340: 7f02 323d b5c7 733d 2812 f3bb 1a97 903c
00000350: 3482 92bd d233 1abc d197 2ebc 23fa 2a3d
00000360: 4d02 3f3d e486 383c 5050 41bd 7d6a 58bc
00000370: b0bf 5cbc 02a4 14bd be1b 1f3d 880c b03c
00000380: 53c1 c83c 2126 7abb 8ab8 f5bc 4b4c adbd
00000390: a4a5 3bbb c035 56bc c053 0dbc 4998 293c
000003a0: 3bf7 7b3d d7af 203d e2f9 38bc df5d 64bd
000003b0: ebdb d9bc 27f9 ae3c c2c9 863d 4ed4 7139
000003c0: 88fd 823d 81da 693d 26df b43d 92cc e73b
000003d0: 525c 5ebd f9ca 293d a48f 543c bf01 9a3c
000003e0: 4225 803d 6c71 b73c 4ba2 3d3c fe74 04bd
000003f0: 8f78 45bd 1673 7ebd 44fc 8bbc fea1 913b
0.019510735 -0.038553037 -0.037851587 -0.02426329 0.027746541 -0.009978926 -0.007820813 -0.016911032
-0.018033812 -0.025495512 0.016758392 0.053095903 0.0014224667 -0.009237472 -0.022758273 -0.009680292
0.019599477 0.06644224 0.060800996 0.00795429 -0.023250068 -0.011957866 0.015743935 0.029398255
0.004312713 0.0050841533 0.014450384 0.018435132 0.0294368 0.021218322 -0.023460897 0.011005888
-0.011595966 0.02002251 -0.020372773 -0.084870994 -0.014911542 0.004450618 0.03513298 -0.025044361
-0.036390003 -0.030690676 0.013800199 -0.029857658 -0.012768138 -0.004107661 -0.008135864 0.005196507
-0.0019468493 0.0021953064 -0.014679752 -0.035003033 -0.020304706 0.017409261 -0.05603309 -0.0040433942
0.008984795 -0.0168965 -0.008248498 -0.04465009 -0.03006589 -0.002319402 0.014866759 0.014597492
0.015096973 0.00061783794 0.008570702 -0.009073676 -0.045315575 0.007679207 0.025907414 -0.021823134
-0.005702182 -0.008782183 -0.017223462 -0.04163173 -0.015589072 -0.022394624 -0.015672686 0.0027964679
-0.013108501 -0.032544654 0.01625331 -0.01635707 -0.0233626 -0.01951782 -0.05354922 -0.006912357
0.01736313 0.0014571731 0.015509445 0.046295054 0.010017864 -0.00930042 -0.03202959 -0.028679974
0.019357935 -0.01348781 -0.02151898 0.006861343 -0.031250913 -0.021961914 0.0043068817 -0.016080547
-0.032284234 -0.0040074987 -0.026220908 -0.0023470921 -0.014481756 0.007143894 0.03939976 -0.014724755
-0.02781217 -0.012407075 -0.006983456 0.0064664884 -0.018595602 0.008933986 0.024026554 -0.0332344
-0.050044384 -0.0047439546 0.0061872 -0.02169836 -0.043360688 0.015098138 0.002310302 -0.0087761115
-0.020353017 -0.051550787 -0.049759876 -0.03568383 -0.031985454 -0.060967267 -0.045081332 -0.045044478
-0.035054214 -0.052136336 -0.018535953 -0.021721456 -0.030943282 -0.0072963536 -0.028557552 0.008203282
-0.030370941 -0.020871472 -0.0013462844 0.016840722 -0.004329582 -0.04729565 0.0052156094 -0.026562728
0.004494694 0.02850211 0.025240596 0.020879608 -0.011659305 -0.023425948 -0.006956953 -0.0058056274
-0.015868861 0.0052945693 -0.00297833 0.016913356 0.008806297 -0.019409534 -0.016238607 -0.01819082
-0.04231045 -0.033318672 0.00212608 -0.0020210387 0.0003904541 0.004807662 -0.055727262 -0.032069344
-0.0039089182 -0.037948456 -0.026167164 -0.042750116 -0.021797216 -0.03634524 -0.03494 -0.011154448
-0.0025692754 -0.026771322 -0.046951123 -0.0022203429 0.0068528648 -0.016554492 -0.03229218 0.0033911045
0.056389183 0.017189477 0.04989801 0.032380745 0.06300517 -6.5277825e-05 0.04252452 0.00015838673
0.008088235 0.05907613 -0.0028414987 0.05826132 0.05378316 0.036318492 0.02625721 0.021476513
0.04345941 0.059516627 -0.007417936 0.017650176 -0.071537405 -0.009411769 -0.010656313 0.041742455
0.046633054 0.011262629 -0.047195733 -0.013208983 -0.013473436 -0.036289223 0.038844816 0.02149035
0.024506247 -0.00381697 -0.029995222 -0.08461817 -0.0028632665 -0.013074338 -0.008625925 0.010351249
0.061515074 0.039230194 -0.011290045 -0.055753585 -0.026594123 0.02135904 0.06581451 0.0002306264
0.063960135 0.057093147 0.08831625 0.007073947 -0.054287262 0.041453335 0.0129737 0.01879966
0.06257106 0.022392951 0.011574338 -0.032338135 -0.048210677 -0.062121473 -0.017088063 0.00444436

fc1.bias f4 [128]
00000000: d071 0e3d 3f24 4fbd e27c 2f3e 680c 1d3e
00000010: eff4 f8bc 645a e03c 4eaa ac3c 36a0 76bd
00000020: adca 173d 1d92 b93d bbd2 4e3c 4c00 d7bc
00000030: bfe2 51bc 8553 9cbc e6f8 acbb 3950 ccbc
00000040: fa2f 6d3c 3a6b 45bc c4b2 c9bc 7a5a d83d
00000050: e3ff 9e3d 627a ac3c dedb b83d 0998 fe3d
00000060: 4d5b 283c 87fd 243e 84c9 f13b ce4d 463d
00000070: 5f4f 3dbd f4c1 c4bc a327 0ebc 2439 a03b
00000080: 9372 1c3d 3790 8b3c 0504 edbd 1756 a03d
00000090: a89e 493d 078f c73d a9ab 6abc 7f88 efbb
000000a0: feef bebb 716d 10bc 8fe0 69bd 9e2c 8f3d
000000b0: a137 b1b9 d714 59bc 6475 31bc a5a5 f6ba
000000c0: e42c cbbc 62d2 fd3a 33fe be3d 2c9a 953d
000000d0: 49e6 cbbd dc7b 72bd 74f2 c23d 8baf efbc
000000e0: 4ccd a4bd 3c9e c9bc 7bb8 133e b30c a03c
000000f0: 41aa c03c 2e4f 6e3d 795e 7abc b7e1 ae3c
00000100: eec7 b9bc b1b3 ef3c 5202 d63b bade 87bc
00000110: fa6d a0bc 94d3 353d 31c8 abbd 9118 2d3d
00000120: a7c5 a7bb c7a6 b5bc 2b87 c23c 146a 2f3c
00000130: b7da 8f3d b8a6 a03c b0b4 3e3c 324f 97bb
00000140: 3914 22bd bb53 fcbb c6da 8a3d 73e9 24bd
00000150: c764 033e 57b5 703c 6e21 ca3b 32b7 3e3c
00000160: c9d9 e93c 3319 033d e548 e73d 575e 093b
00000170: 697b 3bbd 3cf7 b1bc 7a8f ec3c d9e7 ddbc
00000180: 2a6f 8ebb de03 87bc a564 3c3d b853 e63c
00000190: 142e 90bd 4e46 5e3d 22b3 cebc edde bcbb
000001a0: 5b26 abbd a8f1 b23c 3f78 823d 4fbe 7ebd
000001b0: 8c4e ed3c bf18 84bc cf11 013d 1a34 6e3b
000001c0: 3351 eabb 0701 c23c c9c3 56bd 551e 9ebc
000001d0: f483 8ebd c2c9 cd3b 3e7b c43c 676c 223d
000001e0: f156 193c ba6f 6e3d 19a9 d23c 8e68 dc3c
000001f0: b25c 543a 95c4 123e 0fd8 dc3d 2085 06bd
0.03477651 -0.050571676 0.17137483 0.15336764 -0.030390231 0.027386852 0.021077301 -0.060211383
0.03705852 0.09061072 0.012623484 -0.026245259 -0.012810408 -0.019082794 -0.0052786944 -0.024940597
0.014476771 -0.012049491 -0.024621375 0.10564132 0.0776365 0.02105445 0.09026311 0.12431342
0.010275674 0.16112338 0.007378759 0.048414044 -0.046218272 -0.024018265 -0.008676442 0.004889624
0.038195204 0.01703654 -0.11573032 0.0782892 0.049223572 0.09744077 -0.0143231535 -0.007309973
-0.005826949 -0.008815155 -0.05709892 0.06990932 -0.00033801518 -0.0132495975 -0.010831211 -0.0018817676
-0.024801679 0.0019365067 0.093258284 0.073047966 -0.09956033 -0.059200153 0.095189005 -0.02925851
-0.0804697 -0.024611585 0.14425842 0.019537305 0.023518683 0.05818098 -0.015281313 0.021347864
-0.022678342 0.029260488 0.0065310383 -0.016585696 -0.01958369 0.04439123 -0.08387793 0.042259756
-0.0051199975 -0.022174252 0.023746094 0.010706443 0.070241384 0.019610748 0.011639759 -0.004617595
-0.039570067 -0.007700411 0.06780009 -0.040261697 0.12831412 0.014691672 0.006168536 0.011640357
0.02854623 0.032006454 0.112932004 0.0020960772 -0.04577199 -0.021724336 0.028877009 -0.027088093
-0.004346748 -0.016481336 0.04599442 0.028116092 -0.07040039 0.054266267 -0.025231902 -0.0057638795
-0.08356925 0.021843746 0.06370591 -0.06219321 0.028968118 -0.016125081 0.031511124 0.0036346973
-0.007150793 0.02368213 -0.05243281 -0.019301573 -0.06958762 0.006280155 0.023984548 0.03965416
0.009359107 0.05821202 0.025715398 0.026905324 0.0008100971 0.14332803 0.107833974 -0.0328418

fc2.weight f4 [64, 128]
00000000: c668 aa3d 3bc9 e8bd ef81 c73c 4536 7e3d
00000010: 1310 233d 7a09 a9bb bc5a 2abe 7340 9e3d
00000020: f359 523e 3575 0c3d 67e5 ab3d 3d25 a53d
00000030: 553a 02bd 4b42 09bd e0e3 963d 1181 b63d
00000040: 8d19 78bd 8cb5 a4bd e343 99bc d9df 203e
00000050: bd65 053e 9427 80bd 8e77 383d 6960 2dbe
00000060: fa15 d53d f786 d5bc 76ba 903c b7af a4bd
00000070: b4ee 5fbe 968a eb3d aec0 153e c5e0 c33d
00000080: 31cb ffbd 104e 01bd 41f6 8a3d 3709 c63d
00000090: 0f8b 20be 6495 25bd 40d1 04bd 85bb 2abc
000000a0: c6b9 55bd 8843 74bd 1648 8e3c d643 e0bd
000000b0: e151 e13c 062f ebbd b972 7dbc 39f3 49bd
000000c0: e3a8 3b3d 8a82 cabd eeba aa3c a676 80bd
000000d0: fee2 d73c 91cb 5a3e 6914 333d 62f6 043e
000000e0: c6df ab3d ed74 aebd 423e d7bd 2282 733d
000000f0: e6eb de3a c7a3 d8bd 4f51 c5bd 2905 8e3d
00000100: c526 373e dedd 8d3d 87c6 cebd bcfb 443d
00000110: 9da1 963d df8a efbd cec5 9abd 4137 683d
00000120: db07 ef3c b9bc 0c3e 9583 d6bd e906 20be
00000130: f8fc 26be 8590 813d cd19 433d add3 133e
00000140: d08b adbd 7a6b acbd 7120 ed3c d950 f73c
00000150: 22c8 bd3c 4741 943d 7ed0 1bbc 2f26 74bd
00000160: 9c54 4f3d 154f 64bd ea86 d1bd c480 f83d
00000170: e738 b1bb 162a cbbd 65c9 053b 62ed d1bd
00000180: 160c 1a3c 1c55 053e c0cd e2b9 42c8 53bd
00000190: 6dad c53d 031d 753d c77f f6bb 4bc9 1f3d
000001a0: 73d1 93bd 5e04 8f3c 1e6b 1abe 8899 b53d
000001b0: 41a9 e43d 5ad7 a13d 3747 6d3d ab2c bd3b
000001c0: adec c43d ac0f 0abe a42e f83d f25b cf3d
000001d0: 09be 6e3d e848 123e e5cb ecbd f3cc 3dbd
000001e0: 368c 983d 51f0 4abd 8700 4b3d b0ac 84bd
000001f0: 6a76 0e3e e2a7 e3bd 17c4 9ebd a54d 00be
00000200: 0c24 e13c f564 29bd 4120 01bd 1836 143d
00000210: 0104 e4bb 0741 90bd db69 ccbd b797 52bd
00000220: a56e 013e 2643 4abd 9107 52bd f5b8 acbb
00000230: c614 b7bd 9e2a ecbc bd8a a03d 17f1 043e
00000240: d205 c0bc 0606 e0bd d589 07be 4b0f b0bd
00000250: 4019 f03a d9fa 04be 171a a63c 647b b13d
00000260: 6a28 1ebe e007 3e3e d9e6 07bd 68a9 0e3d
00000270: e411 c0bc 0e83 d63c ee26 62bd 9be8 1b3c
00000280: 40d5 083e aa7b 2a3e ae67 353c 6e18 a83d
00000290: d971 ff3d 30b2 063e 0000 d53b 73c2 3ebe
000002a0: cbcb 81bd 0dc7 5ebd 2e12 0abe 374b 283e
000002b0: a464 b83d 0b77 ba3d e280 babd 144b c53d
000002c0: c464 c6bd 794a 8bbd 0e3f 363e d0ee 123d
000002d0: fcba 10be 00d2 0dbe 260f 253e 5097 283d
000002e0: dc64 46bd b56f 83bd 12ba 97bb ad10 173e
000002f0: 9c3c 683d 3b11 a4bd da51 003d f601 84bd
00000300: 1268 90bc dd8a 123e 0fe3 3dbd da35 f83b
00000310: 4c4f 87bd 8556 413d afaa dfbd 2163 e43d
00000320: 1b8b 5abc 99ee a63c cddb 193e eaa5 7f3c
00000330: 8bff 503d d07d af3d 1852 703d 66ad 4dbd
00000340: 3e97 5fbd 3d5f 48bd 70e5 53bd bf39 85bc
00000350: 24ff d33d 5c17 19bc 0f08 033e 0e23 e23d
00000360: ecab 28bd ef4b 2d3e 2927 e63b 3a55 c33d
00000370: 3793 51bd bf1c e7bd c0f4 32bd 7d50 86bd
00000380: b389 d93d 8522 afbd 37cc 103e 08ee 77bd
00000390: a161 a2bd 405b e83c 6b3b 103e 7202 a73d
000003a0: be5a 17bd 9509 f0bd 80ed 09bd ece9 27be
000003b0: 497d 0e3e c247 0abe 8aef 4abd b250 bbbd
000003c0: 6246 d03d a583 19bb e6b3 0bbe cfe4 05be
000003d0: 7096 bdbd fe2c eabd d465 b5bb ea57 8fbc
000003e0: 3889 783c 38c3 4d3d 85b0 023e 6ffc 3ebd
000003f0: 6e3b c13c af27 bf3d d518 a53d 5164 293b
0.08320765 -0.11366507 0.02435395 0.062063474 0.03981025 -0.0051586004 -0.16636175 0.077271365
0.20542125 0.034291465 0.083933644 0.08063743 -0.03179391 -0.033510488 0.073676825 0.08911336
-0.060571242 -0.0804244 -0.018709129 0.15710391 0.13027091 -0.06257549 0.04503589 -0.16931309
0.10404582 -0.026065333 0.017667037 -0.080413274 -0.21868402 0.115010425 0.14624283 0.09564356
-0.124899276 -0.031568587 0.067852505 0.09669726 -0.15678047 -0.040425673 -0.03242612 -0.010420685
-0.05217912 -0.059634715 0.017368358 -0.10950439 0.027504863 -0.114835784 -0.015469247 -0.04930422
0.04581536 -0.098881796 0.020841088 -0.062726304 0.026353355 0.21366717 0.043720637 0.12984613
0.08392291 -0.085183956 -0.105099216 0.059450276 0.0017007559 -0.10578113 -0.09634649 0.06934578
0.17885883 0.069270834 -0.1009646 0.048091635 0.07355044 -0.116964094 -0.075572595 0.05669332
0.02917855 0.13743867 -0.10474316 -0.15627636 -0.16307437 0.06326393 0.047632027 0.14436217
-0.08473933 -0.08418937 0.028946133 0.030189918 0.02316672 0.07239013 -0.009510158 -0.059606727
0.0506178 -0.05573948 -0.10230811 0.12133935 -0.0054083946 -0.09920137 0.002041423 -0.10250355
0.009402296 0.13020748 -0.00043259375 -0.051704653 0.09652219 0.05984212 -0.0075225565 0.039010327
-0.07217684 0.017458137 -0.15079924 0.088671744 0.11165095 0.07902403 0.057929244 0.005773147
0.09615455 -0.13482541 0.12118271 0.10124959 0.0582867 0.14285624 -0.11562327 -0.046338033
0.07448618 -0.04954559 0.04956105 -0.0647825 0.13912359 -0.111160055 -0.07752245 -0.12529619
0.027483009 -0.041356046 -0.0315249 0.0361844 -0.006958485 -0.07043653 -0.09981128 -0.051414218
0.12639864 -0.049380444 -0.051276747 -0.005271072 -0.08939509 -0.028828915 0.07838962 0.12982593
-0.023440275 -0.10938649 -0.13236172 -0.08596667 0.0018318072 -0.12986316 0.020276112 0.08666113
-0.15445104 0.18557692 -0.033179138 0.034829527 -0.02344603 0.026185539 -0.055212907 0.009515907
0.13362598 0.16648737 0.011072082 0.082077846 0.124728866 0.1315391 0.006500244 -0.18628864
-0.063376985 -0.05438905 -0.13483498 0.16434942 0.09003571 0.09104737 -0.09106614 0.09633461
-0.09687188 -0.06801314 0.17797491 0.03587228 -0.14133829 -0.1384964 0.1611906 0.041159928
-0.04843603 -0.06417791 -0.0046303356 0.14752455 0.056698427 -0.08011099 0.03132806 -0.064456865
-0.01762775 0.14310785 -0.046359118 0.007574779 -0.066069216 0.047201652 -0.10921227 0.1115172
-0.013338829 0.020377444 0.15025254 0.015603522 0.051024955 0.08568919 0.05867204 -0.050214194
-0.054587595 -0.04891895 -0.05173248 -0.016262887 0.103513986 -0.009343948 0.12796043 0.110418424
-0.041179582 0.16923498 0.007023711 0.0953774 -0.051165786 -0.1128478 -0.043690443 -0.06558321
0.10621967 -0.08551506 0.14140402 -0.06052974 -0.079287775 0.028363824 0.14085166 0.08154763
-0.036951773 -0.117205776 -0.033673763 -0.16397828 0.1391498 -0.13503936 -0.04954485 -0.09146251
0.101696745 -0.0023424414 -0.13642845 -0.13075565 -0.09257209 -0.11434363 -0.0055358205 -0.017497975
0.015169434 0.050235003 0.1276265 -0.04662746 0.023587909 0.09333741 0.08061377 0.0025847147

fc2.bias f4 [64]
00000000: ddc9 993d 6a2f 373e e989 993e 1bbb ae3d
00000010: be6f a03c fccf 9d3c 6b62 4b3e 54a7 243e
00000020: 5d96 e83d 5b9e f5bb fc08 273e c85d 9d3d
00000030: 2644 663c fefd b53e 2056 143e da01 a7bd
00000040: 9f5c 713d 6e13 8ebd be1b 84bd 0666 1c3c
00000050: feed 763d a65e c63d 5810 533e 7e67 86bc
00000060: 26d8 853e d13a 373e 276f 3c3e 535c ef3d
00000070: 5344 c03c 8bbc 9a3c 001d c33d 5edf 2a3d
00000080: 639d aa3d 8aa2 af3d 31f9 803e f9df 413d
00000090: cbf6 1fbd b198 203d 3535 663e 2080 9f3d
000000a0: d341 123e 1c53 193e 7643 853e f48d e43c
000000b0: c84a 973d 9e7b 753e 5394 29bb 25ff be3d
000000c0: ff32 e2bc 7fac b33d aa33 9b3e 420e 503d
000000d0: 41d8 843c df07 313e dc50 c33d 5428 7dbd
000000e0: 53d1 8ebd cf2b 403d 1eb6 5c3e c66f 443e
000000f0: 4a18 6e3e a10c 8dbc 0bd0 cc3c 22ab c23d
0.075092055 0.17889181 0.2998803 0.08531781 0.019584533 0.019264214 0.19861762 0.16079456
0.113568045 -0.007495684 0.16312021 0.07683903 0.014054334 0.35545343 0.14485979 -0.0815465
0.05892622 -0.069373 -0.06450604 0.009545809 0.06028556 0.096860215 0.20611703 -0.01640677
0.2614147 0.1789353 0.18401776 0.11687531 0.02347008 0.018888732 0.09527016 0.041716926
0.083308004 0.08575924 0.25190118 0.047332738 -0.03905372 0.039208118 0.22481234 0.0778811
0.14282922 0.1497311 0.2602803 0.02789972 0.0738731 0.23972937 -0.0025875762 0.09326009
-0.027612207 0.087731354 0.30312854 0.050794847 0.0162164 0.17288159 0.09536907 -0.061806038
-0.06973519 0.04691678 0.21553847 0.19183263 0.23251453 -0.017217936 0.025001546 0.09505297

fc3.weight f4 [10, 64]
00000000: 2774 473e 99d9 803e 7664 94be 3aa7 453c
00000010: 320b 10be aec0 65be 6829 e3be a234 0e3e
00000020: 5bfd 9cbe 666d 113c a688 bd3d 6e36 cbbd
00000030: 0c18 19be a0d9 98be ecb8 82bd f68f 663e
00000040: 09a0 4abe bc35 553e 3d03 9c3e 5e0c 773e
00000050: 048e 853e b922 ab3e bd1a 723e e713 553e
00000060: abc8 23bd 367b cabe 1544 96be 62d2 15be
00000070: 3649 813e 82c1 35be b09e 923e 4d3a a73e
00000080: ecff 463e 9c92 8fbe 8fdd 47bd 7e01 cebd
00000090: f70a a3bc 03b6 7a3e 6742 01be a557 013e
000000a0: d1bd 88bd 6623 7bbe 8037 abbe e499 7bbe
000000b0: 3ab2 9a3e 2ff4 b03e de27 e13d daba a63e
000000c0: 6a65 b23e 5962 8ebe 4413 3cbe f598 323e
000000d0: 7683 443e 67ec b0be 7e64 993e b181 373e
000000e0: d279 41be d214 b6bd 6051 1a3e 3947 573e
000000f0: cd0e 9dbe ce25 e9bd 0f67 7cbe d922 e8bd
00000100: 65e9 4b3e 2f2c 63be 97ee 92be 3d4a a0bd
00000110: 2a7c 31be 7f9e 7a3e 5898 9ebe 0d38 87be
00000120: d652 c0be 93a5 6a3e 9be4 27be f19d b03e
00000130: d5e5 c03e d3fd 31be 0ca2 04be 767c 33be
00000140: 3634 763d 2e1c 553e 0e33 30be bf60 7abe
00000150: 4d80 82be 86ea 9bbe ffbe 7fbe d0a5 a33e
00000160: 2011 d5be 76d2 26be 911f 43be 23db 0e3d
00000170: caa7 ab3e d01e f6bd 2e0d a93e 3385 d03e
00000180: b382 a33c 1aed 9f3e a1c7 803e 3e5a b03e
00000190: f15f 7fbd d517 783e 1698 9cbd ac99 5abe
000001a0: b07d a9bd 981e 0ebe f9d4 86be 41aa 26be
000001b0: a190 be3e a286 87be 1dfe a3be 3c2f 453d
000001c0: ba7c 05bd bd27 833e 8b83 aa3d ecf6 9fbe
000001d0: 505d 74be ad3b b7be 39a0 933e 21c7 613e
000001e0: 0028 7c3e e7e0 933e a3cf 2dbd ec6e cbbe
000001f0: 11f4 2cbe cbbd 5ebd 1ec9 a23e 8674 143c
00000200: daf9 953d 50fa 863e 9880 803b 6ad4 9d3e
00000210: 3dbd 353e 718f 4abe e8f8 ed3d 0f76 463e
00000220: 676b 9fbe cacf b0be ddf7 263d 321f 39be
00000230: 658c f5bd 4af1 6e3e 37d7 54be d46f 513e
00000240: 5aaa 953e 6f6f 8d3e 3097 753d 51c3 83be
00000250: 09e4 623e d1f1 bb3e 8e49 9a3e d163 d6bd
00000260: cc68 503e 4d69 be3d b74c 873e 25f2 483d
00000270: bc78 2fbe 6f91 d13e 5e36 e23c 9452 dbbd
00000280: ea57 92bc 28d3 12bd 60d1 f43d 5860 5abe
00000290: e2ee c03e 80d5 06be c60c 853c 36d9 2f3e
000002a0: a527 b83d 7051 9dbe cde5 863e acf2 92bd
000002b0: cfe8 853d 7833 213e 814f 373d 0433 85bc
000002c0: 6ce1 7a3e c5ac 52bc 7ae7 923e 7a23 1c3c
000002d0: d2a1 383e 1b0f 343e 5659 09be 91b5 b2be
000002e0: c199 5a3e 7e41 893e 3b3f 303e 7886 303e
000002f0: 28b5 3e3c 1fff 86bc 333b 3ebe 0bf9 883c
00000300: e009 0a3e 7c21 19bd c26d 983e 35df 64be
00000310: 99f1 0dbb 01a5 3e3e 1145 ad3d 5182 213e
00000320: bb38 713c 4843 8b3d b6db 94be 23ff 81be
00000330: 9064 d5bc 2830 633e 8333 5e3e 95b4 f93c
00000340: 8073 25be 30f2 6abe 677a 7d3e f786 95bd
00000350: c274 053e 33fc f03d ee08 bebd 66d4 96be
00000360: 8c2f 3e3e d361 483e faf2 9c3e 438f 923e
00000370: 6044 1bbd 3d0d b23b e037 76be 7a34 37be
00000380: 6e95 1c3e 1fb4 0b3d 51f2 9dbe 3800 6e3e
00000390: 998e 243d 8113 5cbe 08b7 643e baad 68bb
000003a0: ee34 7c3d 0966 323e 7fd1 703e 54ba 14bd
000003b0: 20e1 bfbc a6e9 48be 26ea 4f3d dc77 88be
000003c0: 962a 2b3e afcb 193e ad5c 0ebe 79c4 5c3e
000003d0: 81aa b73b 672d e43a b96d 43be c71a 5cbe
000003e0: 3795 a93d ae50 f1bc c7e0 8fbe 6d7b 253e
000003f0: e8b6 823e 50d8 24be 2bb5 d63d 72c6 903e
0.19477902 0.25166014 -0.28982896 0.012063796 -0.1406677 -0.22436783 -0.44367528 0.13887265
-0.30662045 0.00887618 0.09254579 -0.09922491 -0.1495058 -0.29853535 -0.06382927 0.22515854
-0.19787611 0.2082128 0.3047122 0.24125811 0.26084912 0.3342493 0.23643012 0.20808373
-0.039986294 -0.39547127 -0.29348817 -0.14631036 0.25251168 -0.17749599 0.28636694 0.32661667
0.19433564 -0.28041542 -0.04879528 -0.10058878 -0.01990269 0.24483494 -0.12622987 0.1263109
-0.066768296 -0.24525222 -0.3344078 -0.24570423 0.302141 0.34561297 0.10993932 0.3256443
0.34842998 -0.27809408 -0.18366724 0.17441161 0.19190773 -0.3455536 0.29959482 0.17920567
-0.18894127 -0.0889069 0.15070105 0.21023263 -0.30675355 -0.11384164 -0.24648689 -0.11334772
0.19913252 -0.22184823 -0.28697655 -0.0782666 -0.17332521 0.24474524 -0.30975604 -0.2640995
-0.375632 0.22914724 -0.163958 0.344955 0.37675348 -0.17381983 -0.12952441 -0.17527947
0.060108386 0.20811531 -0.17206976 -0.24450968 -0.2548851 -0.30452365 -0.24975203 0.31962442
-0.41614628 -0.16291222 -0.1905501 0.034876954 0.3352645 -0.12017596 0.33017868 0.40726623
0.019959783 0.31235582 0.25152305 0.3444385 -0.062347356 0.24227841 -0.076461956 -0.21347684
-0.08275926 -0.13878858 -0.2633436 -0.16275884 0.37219718 -0.26469904 -0.3202981 0.04814075
-0.03258965 0.25616255 0.08325871 -0.31243074 -0.23863721 -0.35787717 0.28833178 0.22048618
0.24624634 0.28882524 -0.042434346 -0.39733064 -0.16889979 -0.05438022 0.31794065 0.0090609845
0.07323046 0.26362848 0.0039215796 0.30826122 0.1774797 -0.19781281 0.11619741 0.19380973
-0.3113663 -0.3453353 0.040763725 -0.18078306 -0.11989669 0.23334232 -0.20785223 0.20452815
0.2923153 0.2762408 0.059958637 -0.25734952 0.22157301 0.3670793 0.30134243 -0.10468257
0.20352477 0.09297428 0.26425716 0.049059052 -0.171359 0.4093127 0.027613815 -0.1070911
-0.017864186 -0.035845906 0.119539976 -0.21325815 0.37682253 -0.13167381 0.016241442 0.17172703
0.089919366 -0.30726194 0.263472 -0.07175192 0.06538545 0.1574229 0.044753555 -0.016259678
0.24500054 -0.012858574 0.28692228 0.009529943 0.1803048 0.17583887 -0.13412985 -0.3490415
0.21347715 0.2680778 0.1721162 0.17238796 0.011639871 -0.016479073 -0.1857727 0.016720315
0.1348033 -0.03738545 0.2977124 -0.22350772 -0.0021658896 0.18617631 0.08460439 0.15772368
0.014722998 0.06799942 -0.29073876 -0.25389966 -0.026048928 0.22186339 0.21699338 0.030481616
-0.16157341 -0.2294395 0.24753724 -0.07301133 0.13032821 0.11766853 -0.09279047 -0.29458922
0.18572825 0.19568567 0.30654126 0.28624925 -0.037907004 0.005433707 -0.24044752 -0.17891112
0.15291378 0.034107324 -0.30848935 0.23242271 0.040175054 -0.21491815 0.22335446 -0.003550394
0.061573915 0.17421736 0.23517416 -0.03631051 -0.023422778 -0.1962038 0.05076041 -0.26653945
0.16715464 0.15019105 -0.1390254 0.21559323 0.0056050424 0.001740855 -0.19084825 -0.2149459
0.082804136 -0.029457416 -0.2810118 0.16160364 0.2553017 -0.16098142 0.10483774 0.28276402

fc3.bias f4 [10]
00000000: 3b15 c4bc ae9f 94be e011 89bd a97b 043f
00000010: a275 d23e 6939 22be 49a9 1c3d 567e 96be
00000020: ae51 a93e 2ae9 93be
-0.023935905 -0.29028076 -0.066928625 0.5175119 0.41105372 -0.15842213 0.03824738 -0.29393262
0.3307013 -0.28888828
